research/papers/mathematical-research/best_lstm_model.pth (torch, 540781 bytes, 17 tensors)

lstm_layers.0.weight_ih_l0 f4 [512, 1]
0	0xbb86f91f	-0.004119053
1	0x3dbc57f1	0.09196461
2	0x3db74d10	0.089502454
3	0xbd0f039c	-0.03491555
4	0x3df14f3f	0.11782693
5	0xbba133b5	-0.004919494
6	0x3d78525c	0.06062542
7	0x3db26255	0.087101616
8	0x3d21721d	0.039415468
9	0x3d5d7db0	0.054074943
10	0x3e4ebb6d	0.20188685
11	0x3e3cfb91	0.1845534
12	0x3d5ddbe0	0.054164767
13	0x3d460691	0.048346106
14	0x3c1021c8	0.008797117
15	0x3c9b4bf5	0.018957118
16	0x3d3913b1	0.045184795
17	0xbe02839f	-0.12745522
18	0xbd01a888	-0.031654865
19	0x3deb2c45	0.11483053
20	0xbd36b5ea	-0.04460708
21	0x3d8bb061	0.06820751
22	0x3d1591f4	0.036516145
23	0xbdaa0db3	-0.08303394
24	0x3d72fb83	0.05932189
25	0xbd16791e	-0.0367366
26	0xbca166b8	-0.0197023
27	0x3d49cad9	0.049265716
28	0x3dc66509	0.0968724
29	0x3da811db	0.08206531
30	0x3cdb96a4	0.02680523
31	0xbd8dfc05	-0.069328345
32	0x3c100eba	0.008792574
33	0xbc11e9d0	-0.008905843
34	0x3e255f1f	0.16149567
35	0xbc900401	-0.017580034
36	0xbcbef69c	-0.023310952
37	0xbd34d644	-0.044149652
38	0x3c9b82f9	0.018983351
39	0x3e0a2ead	0.13494368
40	0x3daa02f4	0.083013445
41	0x3e476c0c	0.1947481
42	0xbc94432d	-0.018098438
43	0x3a11a5f7	0.0005556042
44	0x3d8b5d58	0.06804913
45	0xbcae442c	-0.021272741
46	0x3d0afb5d	0.033931125
47	0x3c8c99c7	0.01716317
48	0x3cad85af	0.02118191
49	0x3c05aa71	0.008158312
50	0xbdeca8ce	-0.115556344
51	0xbcac9752	-0.021068249
52	0x3c339798	0.010961436
53	0x3d3c5976	0.045983754
54	0x3e511f1b	0.20422022
55	0x3dcaa85d	0.09895394
56	0x3d599a4d	0.05312567
57	0x3e7942a8	0.24341834
58	0xbd0a0ead	-0.033705402
59	0x3d7c64f4	0.061619714
60	0x3ce9452d	0.028475368
61	0x3e206138	0.15662086
62	0x3def53e4	0.11685923
63	0x3cc95c97	0.024580283
64	0x3c896117	0.016769929
65	0x3da1d0fa	0.07901187
66	0x3de270fe	0.11056708
67	0x3e251367	0.16120683
68	0xbdcb76f6	-0.099347994
69	0x3da7671b	0.08173963
70	0xbd5be688	-0.05368665
71	0x3e095644	0.13411814
72	0xbd836c10	-0.06417096
73	0x3dd0adfb	0.10189434
74	0xbd3e8925	-0.04651751
75	0x3dec3653	0.11533799
76	0x3cd68069	0.026184278
77	0xbc2719f5	-0.01019906
78	0xbd137ee5	-0.036009688
79	0x3e3cc338	0.18433845
80	0x3c84f59c	0.016230397
81	0xbc857378	-0.016290411
82	0x3df73239	0.12070126
83	0xbd6788e5	-0.056527037
84	0x3dfc16b2	0.12309016
85	0x3c8ae777	0.016956074
86	0x3dd7ce72	0.10537423
87	0x3cd970f9	0.026543127
88	0x3d8f9e26	0.07012586
89	0x3e09e06e	0.1346452
90	0x3db18697	0.08668249
91	0x3e1b5acf	0.1517136
92	0xbd539902	-0.05165959
93	0xbd468b36	-0.048472606
94	0x3d71828b	0.058962386
95	0xbd2563e7	-0.040378477
96	0x3d845d94	0.06463161
97	0x3e3eed75	0.1864527
98	0xbc25538f	-0.010090723
99	0x3dd09238	0.10184139
100	0x3df5b19f	0.11996769
101	0xbcf73799	-0.030177878
102	0x3dc80b7e	0.09767817
103	0x3b66d39a	0.003522134
104	0x3dff4ddf	0.124660246
105	0x3d273c95	0.04082926
106	0xbd96e71d	-0.073683
107	0x3d5c0020	0.053711057
108	0xbdd0f631	-0.10203207
109	0x3df49ca5	0.1194394
110	0x3d288c48	0.041149408
111	0xbd977466	-0.07395248
112	0xbdad969d	-0.08475993
113	0x3d7d2602	0.061803825
114	0x3e3caae8	0.1842457
115	0x3b898912	0.0041972483
116	0xbd7c19a7	-0.0615479
117	0x3e76b364	0.2409187
118	0x3d5d61ff	0.054048534
119	0xbc5ed4b6	-0.013600519
120	0x3c926027	0.017868115
121	0x3e449b7a	0.19199935
122	0xbcadbab1	-0.021207185
123	0x3cf0dd5a	0.029402424
124	0x3d394529	0.045231972
125	0xbcc6ce4f	-0.024268297
126	0x3e3bdd83	0.18346219
127	0xb7e90958	-2.7780115e-05
128	0x3a3f3996	0.0007294653
129	0x3cd7cbb2	0.026342247
130	0x3e21a052	0.15783814
131	0xbc0d2e15	-0.008616944
132	0x3dfa5db4	0.12224904
133	0xbdbed672	-0.09318246
134	0xbd855032	-0.06509437
135	0x3dafe60c	0.085888
136	0xbad228e0	-0.001603391
137	0xbc8fae5e	-0.0175392
138	0x3d824bda	0.06362124
139	0x3e14e30d	0.14539738
140	0xbd01c66b	-0.031683367
141	0x3c445f0e	0.011985553
142	0xbd6fec2e	-0.058574848
143	0xbc245bfd	-0.010031697
144	0x3cb569d1	0.022145184
145	0xbcf1f121	-0.029533925
146	0xbdb92777	-0.090407304
147	0x3d9bf136	0.07614367
148	0x3cba21f3	0.022721266
149	0xbd64c23c	-0.0558493
150	0xbe00b7bf	-0.12570094
151	0xbe26f57a	-0.1630458
152	0x3dc03ffb	0.09387203
153	0x3d258b6f	0.040416177
154	0xbe1c83c4	-0.1528464
155	0x3e0ee0fa	0.13953009
156	0x3da26251	0.079289086
157	0x3cf460cb	0.02983131
158	0x3c41642f	0.011803671
159	0xbdb11398	-0.08646315
160	0xbc2278bf	-0.009916483
161	0x3d07f829	0.03319565
162	0x3df77248	0.12082344
163	0xbdffe7e9	-0.12495405
164	0x3b4512f8	0.003007112
165	0x3d5330d5	0.05156024
166	0xbd0ab042	-0.0338595
167	0x3d2773e6	0.040882014
168	0x3d2f9dd2	0.04287512
169	0x3dde6be9	0.10860426
170	0xbe1fe576	-0.15614876
171	0x3e048982	0.1294308
172	0x3e1ea65f	0.15493153
173	0xbdeba0e0	-0.11505294
174	0x3e0df17d	0.13861652
175	0xbdb0242d	-0.0860065
176	0xbb803213	-0.0039122193
177	0x3d739e97	0.059477415
178	0xbd81c0d8	-0.0633561
179	0xbd583251	-0.05278236
180	0x3d4ba344	0.04971625
181	0x3c6dbfd2	0.014511066
182	0x3e30c87b	0.17263977
183	0xbdf595c3	-0.119914554
184	0xbdd473ed	-0.103736736
185	0x3d8db6b6	0.06919615
186	0xbe03dd92	-0.12877491
187	0x3d22dbc1	0.039760355
188	0x3d4c7f0a	0.04992584
189	0x3e03a70c	0.12856692
190	0xbb80c64d	-0.0039298893
191	0x3b6728f3	0.003527221
192	0xbdd5b7d4	-0.10435453
193	0x3e057971	0.13034607
194	0x3df2d937	0.11857837
195	0x3d61fae0	0.055170894
196	0xbdbb0e3f	-0.091335766
197	0x3d8b903a	0.068146184
198	0xbdce7028	-0.10079986
199	0x3e3426ed	0.17592974
200	0x3cb0c8d8	0.021580145
201	0xbcb98626	-0.022646975
202	0xbdbaa149	-0.09112794
203	0x3dab4c8e	0.08364211
204	0xbddaff63	-0.106932424
205	0xbe339507	-0.17537318
206	0xbd49a2da	-0.049227573
207	0x3dc378fe	0.09544562
208	0x3dc1edd2	0.09469189
209	0xbd0f9b85	-0.035060424
210	0x3d9f5645	0.077801265
211	0xbc6f1bec	-0.014594059
212	0x3e373b8a	0.17893806
213	0xbde164a1	-0.110055216
214	0xbc45cd4b	-0.012072871
215	0xbdcf094e	-0.101091966
216	0xbd9b9336	-0.07596438
217	0xbd10f04a	-0.035385408
218	0xbdc5aafc	-0.09651753
219	0x3e08f02b	0.13372867
220	0xbd906382	-0.070502296
221	0xbda3e7e8	-0.08003217
222	0x3cb799af	0.02241215
223	0x3d892aa4	0.06697586
224	0x3d02ea62	0.031961806
225	0x3e4ca9f9	0.19986714
226	0x3d971630	0.07377279
227	0x3dca7a54	0.098866135
228	0x3d8a19d9	0.06743211
229	0xbd7efee6	-0.06225481
230	0xbc1242e2	-0.008927079
231	0xbd813b3f	-0.063101284
232	0x3dc1d066	0.09463577
233	0xbbf79e48	-0.0075567104
234	0xbdb8fa39	-0.09032101
235	0x3dce6f93	0.10079875
236	0xbe2dbc0a	-0.16966262
237	0x3c73d081	0.014881254
238	0x3c260e7d	0.01013529
239	0xbd992723	-0.07478168
240	0xbd536b82	-0.0516162
241	0x3d49396f	0.04912704
242	0x3e33aa72	0.17545488
243	0xbd3cd80b	-0.046104472
244	0xbd44c9e7	-0.04804411
245	0x3d3499d0	0.044092
246	0x3d9ad7bd	0.0756068
247	0xbd913c2d	-0.07091556
248	0x3d3efde2	0.04662884
249	0x3d8e1f5f	0.06939577
250	0x3beff958	0.0073234253
251	0x3dcbdbe7	0.099540524
252	0x3da2ddcb	0.0795246
253	0xbd2c419e	-0.042054765
254	0x3e40098c	0.18753642
255	0x3c71831e	0.014740733

lstm_layers.0.weight_hh_l0 f4 [512, 128]
0	0xbce604a0	-0.028078377
1	0xbdf04de6	-0.11733608
2	0x3d96317d	0.07333658
3	0x3d610697	0.054937925
4	0x3dc0277e	0.093825325
5	0xbd09c97a	-0.03363941
6	0x3b1f541a	0.0024311603
7	0xbd362d2b	-0.04447667
8	0x3d152a77	0.03641745
9	0x3d97b40a	0.074073866
10	0x3d1aafb6	0.037765227
11	0x3d9ed6a7	0.077557854
12	0x3d839698	0.06425208
13	0xbb5beecb	-0.003355908
14	0xbd2debd7	-0.042461243
15	0x3cdf9dbf	0.027296899
16	0xbd4dafae	-0.05021637
17	0xbd4ad002	-0.049514778
18	0xbc88b850	-0.01668945
19	0xbce0aa82	-0.027425054
20	0x3da1f501	0.07908059
21	0x3d9b4429	0.0758136
22	0x3d7ddfcb	0.061981004
23	0x3dad57d3	0.08464017
24	0xbc0cbcbf	-0.008589922
25	0xbda5eb57	-0.08101528
26	0x3caa1cbc	0.020765655
27	0x3d2e3aa1	0.04253638
28	0xbd21e543	-0.03952528
29	0xbdb07e37	-0.086178236
30	0xbd83fecc	-0.06445083
31	0xbc5c65dd	-0.0134520205
32	0x3b61b961	0.003444277
33	0x3dac0d73	0.08401003
34	0xbc04a221	-0.008095295
35	0xbd72d3f0	-0.05928415
36	0xbd07e9c7	-0.03318193
37	0xbcfad59a	-0.030619431
38	0x3ce7e80c	0.02830889
39	0xbcc2c897	-0.02377729
40	0x3d65b47b	0.056080323
41	0xbc3447f0	-0.011003479
42	0x3db3f022	0.08786036
43	0x3db03cbc	0.08605334
44	0xbd6861ae	-0.05673378
45	0xbd920b80	-0.071311
46	0x3b05299a	0.0020318986
47	0xbd101360	-0.035174727
48	0x3d8b2b47	0.06795364
49	0xbd880371	-0.066412814
50	0x3c37fd1b	0.011229779
51	0x3d1a5518	0.037678808
52	0x3b37c4cb	0.0028040882
53	0x3d8629fb	0.06550976
54	0xbd510467	-0.05102959
55	0xbdb05672	-0.08610238
56	0x3d42adbe	0.047528975
57	0xbd3670c9	-0.044541154
58	0x3d924a6c	0.07143101
59	0x3d5acb15	0.05341633
60	0x3c4156d3	0.011800486
61	0xbd0b20ff	-0.033967014
62	0xbcfa81dc	-0.0305795
63	0x3ca09459	0.019601988
64	0xbc5f4465	-0.013627146
65	0x3b5fea01	0.0034166577
66	0x3c3e4028	0.011611976
67	0x3db622c5	0.088933505
68	0xbcab93ba	-0.020944465
69	0x3ca492c3	0.020089513
70	0x3cebc472	0.028780196
71	0x3d387504	0.04503347
72	0xbcb2dd35	-0.021833995
73	0xbd902dfb	-0.0704002
74	0xbc8effe4	-0.017456003
75	0x3de6cfe6	0.11270122
76	0xbd2d2464	-0.042271033
77	0xbddd70fd	-0.108125664
78	0x3c702d14	0.014659185
79	0x3bbe0f49	0.005800162
80	0x3d14bb33	0.03631134
81	0x3d20893b	0.039193373
82	0xbd4ac307	-0.0495024
83	0xbd923653	-0.07139268
84	0xbde26936	-0.11055224
85	0xbd05e79c	-0.032691583
86	0x3d5cacf2	0.05387587
87	0xbdd8e7b3	-0.10591068
88	0x3db0ce14	0.08633056
89	0xbd015575	-0.03157564
90	0xbd9cec35	-0.076622404
91	0x3dba8a0b	0.09108361
92	0xbd917108	-0.07101637
93	0xbd14995a	-0.03627906
94	0xbd301f5e	-0.042998664
95	0x3b45d382	0.0030185883
96	0x3cfaa299	0.03059511
97	0xbd5d0375	-0.053958375
98	0x3cb76aab	0.02238973
99	0x3cf5a1fe	0.02998447
100	0xbd87acf5	-0.06624786
101	0x3d5363cd	0.05160885
102	0xbb624ba9	-0.003452996
103	0x3cc14d32	0.02359638
104	0x3d7aabca	0.061198987
105	0xbda0bc1b	-0.07848378
106	0x3d66f4ec	0.05638592
107	0x3ddb31d8	0.10702866
108	0xbd58d2aa	-0.05293528
109	0x3c8f71b3	0.01751027
110	0xbd0c7663	-0.03429259
111	0xbd5f9ad5	-0.05459102
112	0x3d93f13d	0.07223747
113	0x3cd76c11	0.026296647
114	0x3d7dcec4	0.061964765
115	0xbc5160b7	-0.012779406
116	0x3d22afa8	0.0397183
117	0x3ca621ba	0.020279754
118	0xbd2b5652	-0.04183037
119	0xbc49faaa	-0.012327829
120	0xbdc6c562	-0.097056165
121	0x3dd66261	0.10467983
122	0xbd5c01b3	-0.053712558
123	0x3d26c6fd	0.040717114
124	0x3be1f1b5	0.006895269
125	0x3d91b99a	0.07115479
126	0xbc371b9b	-0.011176015
127	0xbcc1c22d	-0.02365216
128	0xbdc7b098	-0.097504795
129	0xbc768095	-0.015045305
130	0x3ccfe9bb	0.025380006
131	0xbd2304b0	-0.039799392
132	0x3d3ebde6	0.04656782
133	0xbb30e4b4	-0.0026991786
134	0x3dc39c34	0.09551278
135	0xbd46a037	-0.048492637
136	0x3bddbc58	0.006766837
137	0xbd059c89	-0.032619987
138	0xbbb15595	-0.0054118135
139	0xbd7805a6	-0.06055226
140	0xbb65bc6d	-0.0035054937
141	0xbd49c18c	-0.049256846
142	0x3c34b682	0.011029841
143	0x3dda4a41	0.10658694
144	0xbcecb646	-0.028895508
145	0xbd110923	-0.035409104
146	0xbd42452c	-0.04742925
147	0xbd8146fe	-0.06312369
148	0x3cdf041c	0.02722364
149	0x3d832fa9	0.06405575
150	0xbcd1aa51	-0.025593909
151	0x3bdcd9d1	0.006739833
152	0x3c5357a3	0.012899312
153	0x3d821e89	0.0635348
154	0xbd228fc6	-0.039687894
155	0x3d2ff72d	0.042960335
156	0x3cf19035	0.029487709
157	0xbc930637	-0.0179473
158	0xbd84983f	-0.06474351
159	0x3d98e338	0.074652135
160	0x3c5495bf	0.012975155
161	0x3d514111	0.051087443
162	0x3c1b3a1b	0.009474303
163	0x3d6bb441	0.05754495
164	0xbd505f7b	-0.050872307
165	0xbcef28e1	-0.029194297
166	0xbd3837f9	-0.044975255
167	0xbd05e5a4	-0.032689705
168	0xbced2e2d	-0.028952682
169	0x3d1dedbe	0.038556807
170	0xbcdde76b	-0.027087888
171	0xbc885369	-0.016641336
172	0xba264d06	-0.0006343875
173	0xbb09f226	-0.0021048873
174	0x3da78940	0.08180475
175	0x3d96d19f	0.07364201
176	0x3d7b281c	0.06131755
177	0x3c548149	0.012970277
178	0xbc261db1	-0.010138915
179	0x3ca324e9	0.019915061
180	0x3d380c66	0.0449337
181	0xbbe02d1e	-0.006841316
182	0xbc2e35b3	-0.01063292
183	0x3d767cb3	0.060177516
184	0x3d0d3005	0.034469623
185	0xbd5b57ed	-0.05355065
186	0xbd6a41a8	-0.05719152
187	0x3d55e471	0.05221981
188	0xbcd830ba	-0.026390422
189	0x3d9e72f6	0.07736771
190	0x3c058aef	0.0081508
191	0xbda45eac	-0.0802587
192	0x3d9df98a	0.077136114
193	0x3caeaf27	0.021323754
194	0xbd9a7118	-0.07541102
195	0xbaf650f4	-0.0018792436
196	0x3ceaa3f1	0.028642626
197	0xbc0bfed4	-0.0085446425
198	0x3d476f1a	0.04868994
199	0xbd463712	-0.048392363
200	0x3db9d6ef	0.090741985
201	0xbd17dada	-0.037073947
202	0x3cc262ef	0.023728816
203	0xbc895531	-0.016764255
204	0xbd9e6194	-0.07733455
205	0xbde99dfb	-0.114070855
206	0xbdc3b4f1	-0.09555996
207	0xbd686010	-0.056732237
208	0xbce3be48	-0.027800694
209	0x3dc06f34	0.0939621
210	0xbdd9c91f	-0.10634064
211	0x3bdd0a5c	0.0067456197
212	0x3da3094e	0.07960759
213	0x3cb55358	0.022134468
214	0x3c50a5e8	0.012734868
215	0xbc9b215d	-0.018936807
216	0xbc01ffaa	-0.00793449
217	0x3c835002	0.016029362
218	0x3cf79f8e	0.030227449
219	0xbda70fcf	-0.08157312
220	0x3bf0caa9	0.0073483777
221	0xbdcff645	-0.10154394
222	0xbdc418d9	-0.09575052
223	0x3b9be851	0.004757919
224	0xbd9eedd7	-0.07760208
225	0x3c3db7e7	0.01157949
226	0xbd1b8892	-0.03797204
227	0xbd66cad2	-0.05634577
228	0xbcdb0909	-0.026737707
229	0x3cd57679	0.026057469
230	0x3b4d083b	0.0031285423
231	0xbe0c431a	-0.13697472
232	0x3c6eedf3	0.014583099
233	0xbdf9d038	-0.12197918
234	0x3c9b766f	0.018977372
235	0xbce5094c	-0.027958535
236	0x3d92ad3d	0.07161949
237	0x3d0f3189	0.03495935
238	0xbd98d51a	-0.07462521
239	0x3d8ee9a3	0.069781564
240	0x3d0f493d	0.034981955
241	0x3dd9502c	0.10610995
242	0x3c9243b0	0.017854542
243	0x3c7b9b2b	0.015356819
244	0xbdfffbcd	-0.12499199
245	0x3d866a9d	0.065633036
246	0x3dff8e7d	0.12478349
247	0x3c90ca0b	0.017674467
248	0x3d5c5595	0.053792555
249	0x3c5a4603	0.013322356
250	0x3d9f1a89	0.07768733
251	0x3d7d51c3	0.061845552
252	0xbd9c3031	-0.07626379
253	0xbd64b03f	-0.055832144
254	0xbd688d1a	-0.05677519
255	0xbcaa954c	-0.020823143

lstm_layers.0.bias_ih_l0 f4 [512]
0	0x3d2b419b	0.041810613
1	0x3e0014c1	0.12507917
2	0x3ce24758	0.02762191
3	0xbd96d056	-0.07363956
4	0x3c893d1b	0.01675277
5	0xbd258427	-0.040409233
6	0x3c323a39	0.010878139
7	0xbddcd16b	-0.10782131
8	0x3bf92a2b	0.0076039038
9	0x3dc0c58d	0.0941268
10	0x3d219bfe	0.039455406
11	0xbda91b4b	-0.08257159
12	0x3da69949	0.081347056
13	0x3ca33edd	0.019927436
14	0x3db611af	0.08890092
15	0x3c9ab64f	0.01888576
16	0xbc04ef39	-0.008113676
17	0xbd9e5de1	-0.0773275
18	0x3cc56796	0.024097245
19	0x39eaa8c0	0.00044757687
20	0xbdbb7f02	-0.09155084
21	0xbd663623	-0.056203973
22	0xbd7679b3	-0.060174655
23	0xbd1616fa	-0.036643006
24	0xbcfd847f	-0.030946968
25	0x3d6afe1c	0.057371244
26	0x3cfc692f	0.030811874
27	0x3c17dc43	0.009268823
28	0xbdb52322	-0.08844592
29	0xbd57043e	-0.05249428
30	0x3da19f6f	0.07891738
31	0x3d29a540	0.04141736
32	0x3da2b9b2	0.07945575
33	0x3c45d76e	0.012075288
34	0xbdbc680f	-0.09199535
35	0x3d963ac1	0.07335425
36	0x3d8d1a28	0.068897545
37	0xbd346a6c	-0.044046804
38	0x3cff5bf8	0.031171784
39	0x3d9a2dbd	0.07528255
40	0x3d44e036	0.048065387
41	0x3d40e92b	0.047097366
42	0xbd023679	-0.03179023
43	0x3dc3c059	0.09558172
44	0xbd54bab8	-0.05193588
45	0x3d83388b	0.06407269
46	0xbc9bb0df	-0.019005237
47	0xbd959880	-0.07304478
48	0xbd295a1a	-0.041345693
49	0x3cd6129b	0.026131919
50	0xbd20f6a4	-0.039297715
51	0x3d1064c7	0.03525236
52	0x3d7835ef	0.06059831
53	0x3bf99efb	0.007617829
54	0xbd58251e	-0.052769773
55	0x3d6ba9c3	0.057534944
56	0x3dd6e29d	0.10492442
57	0xbd93c0cc	-0.072145075
58	0x3d579c5e	0.052639358
59	0xbc82002f	-0.015869228
60	0x3c27c811	0.010240571
61	0x3dbcfba7	0.092276864
62	0xbd32f021	-0.043686036
63	0xbd434839	-0.0476763
64	0xbd6a0b06	-0.05713942
65	0xbd5e9511	-0.05434138
66	0xbd66ff61	-0.056395892
67	0xbd99aaae	-0.07503258
68	0xbd0031ff	-0.03129768
69	0x3c5fce34	0.0136600025
70	0xbd888b83	-0.06667235
71	0x3ca1c517	0.0197473
72	0x3cf94fbe	0.030433532
73	0x3b8636d1	0.00409589
74	0x3e13646f	0.14393781
75	0x3d949837	0.07255595
76	0xbd783a67	-0.06060257
77	0x3c2117ad	0.009832305
78	0x3bc2a638	0.005940225
79	0xbd96c45d	-0.07361672
80	0xbc887cf3	-0.016661143
81	0xbc61d0ba	-0.013782674
82	0xbd0fa374	-0.03506799
83	0xbc34de83	-0.011039379
84	0xbc937fb8	-0.018005237
85	0x3d2faeb1	0.042891208
86	0xbdc72f91	-0.097258694
87	0x3e867c54	0.2626673
88	0xbd4beb8e	-0.04978519
89	0x3d6aa420	0.057285428
90	0x3d8896eb	0.0666941
91	0xbd75a86e	-0.05997508
92	0x3d3dd39f	0.046344396
93	0x3d7c22c0	0.061556578
94	0xbd5f86c0	-0.054571867
95	0x3d895a6d	0.067067005
96	0xbbc2812f	-0.00593581
97	0xbda14385	-0.078742065
98	0xbc42fe97	-0.011901519
99	0x3d2637e3	0.04058064
100	0xbd304540	-0.043034792
101	0xbcf29ffd	-0.029617304
102	0x3cd6af9b	0.026206782
103	0x3dceb214	0.100925595
104	0x3cf02100	0.02931261
105	0x3d29600b	0.04135136
106	0x3cfe6b09	0.031056898
107	0x3d2ad7e7	0.041709807
108	0x3d86c498	0.06580466
109	0xbd32b7ae	-0.0436322
110	0xbd66bfbd	-0.0563352
111	0x3d4b8cf4	0.04969497
112	0xbdcd3964	-0.10020712
113	0xbd5f954a	-0.054585733
114	0x3d897fdc	0.0671384
115	0xbd6367d5	-0.055518944
116	0x3e739ef1	0.237911
117	0xbdde8133	-0.108644865
118	0xbc8b444e	-0.017000344
119	0xbc47deb8	-0.012199096
120	0x3cd89117	0.026436372
121	0xbca9ec97	-0.020742698
122	0x3d7f921e	0.062395208
123	0xbdc348c5	-0.09535364
124	0xbc6c584d	-0.014425349
125	0x3b8e466c	0.004341891
126	0xbd0ad374	-0.033893064
127	0x3d2ed5d4	0.04268439
128	0xbd30e2cd	-0.043185044
129	0xbdce3e86	-0.10070519
130	0x3d8fd1ee	0.07022463
131	0x3d6b6767	0.05747166
132	0x3d25d6a7	0.04048791
133	0x3cfe93a1	0.031076254
134	0xbd894f11	-0.06704534
135	0x3d1a2474	0.03763242
136	0xbcf06812	-0.0293465
137	0x3d5a5546	0.05330398
138	0xbd37178b	-0.044700187
139	0xbd09f90c	-0.033684775
140	0x3c151e2b	0.009101431
141	0xbb7993ff	-0.0038082597
142	0x3dc8c9df	0.09804129
143	0xbdd051a8	-0.10171825
144	0xbdab92e7	-0.08377629
145	0xbdbb452f	-0.09144055
146	0x3c85a99f	0.016316233
147	0x3d86b838	0.06578106
148	0x3d1620af	0.036652263
149	0x3c9812e8	0.018563703
150	0x3d915c35	0.07097665
151	0x3d9565b8	0.07294792
152	0x3d15e65d	0.036596645
153	0xbdc78c1c	-0.097435206
154	0xbd856473	-0.065133
155	0xbdab9b6b	-0.08379253
156	0x3b831a88	0.0040009655
157	0x3cf1bf9b	0.02951031
158	0x3d69cc09	0.05707935
159	0xbd543308	-0.05180648
160	0x3d9638ae	0.073350295
161	0x3b38adac	0.0028179688
162	0xbd9c91e9	-0.07645018
163	0xbc8ed678	-0.017436251
164	0xbcc5ff5f	-0.024169622
165	0x3d21159c	0.03932725
166	0xbd71171c	-0.05885993
167	0x3dd87366	0.105688855
168	0x3cfb4b56	0.030675571
169	0x3da6c310	0.08142674
170	0x3d980ff5	0.074249186
171	0xbc602a86	-0.013682013
172	0xbd7874c7	-0.060658243
173	0x3bf8216b	0.007572343
174	0xbca1a754	-0.019733109
175	0xbd817f90	-0.06323159
176	0x3ce1f241	0.027581336
177	0x3d10896f	0.035287317
178	0x3d019f21	0.031645898
179	0x3d3c270b	0.04593567
180	0x3c5efa81	0.0136095295
181	0x3d30167e	0.0429902
182	0x3a4b4233	0.00077537
183	0x3cc0bb60	0.023526847
184	0x3d34b06f	0.044113573
185	0xbd808bfa	-0.062766984
186	0xbcfafbd0	-0.030637652
187	0x3af7c19f	0.0018902308
188	0x3dab54b8	0.08365768
189	0xbd530271	-0.051516
190	0xbd07731f	-0.033068772
191	0xbde09067	-0.109650426
192	0x3c585c29	0.013205566
193	0x3bb21aed	0.0054353387
194	0xbdcdccf0	-0.10048854
195	0x3c6ecf4c	0.014575791
196	0xbdf43b07	-0.11925321
197	0x3d37709f	0.04478514
198	0xbd7d3236	-0.061815463
199	0x3c591690	0.013250008
200	0x3ddc07a2	0.10743643
201	0x3b6ef50f	0.0036461984
202	0xbdaa61c0	-0.083194256
203	0x3cb9cb6e	0.02268001
204	0xbd2b115d	-0.041764606
205	0x3c573dbc	0.013137277
206	0x3c3cca24	0.011522803
207	0x3db9a447	0.090645365
208	0xbd2ac36d	-0.04169028
209	0x3d6a0132	0.057130046
210	0x3d451726	0.04811778
211	0x3d233996	0.03984984
212	0xbdca4114	-0.09875694
213	0xbda2920a	-0.07938011
214	0x3cd23ec4	0.025664695
215	0xbd71b3e8	-0.059009463
216	0x3d6d2217	0.05789384
217	0xbd1d9424	-0.038471356
218	0x3d544a67	0.051828768
219	0x3da63ff1	0.081176646
220	0x3de591bc	0.11209437
221	0x3de7a6fd	0.11311147
222	0x3d68fa4a	0.05687932
223	0xbd043ba7	-0.03228345
224	0xbd9ebaf4	-0.07750502
225	0x3c8602b9	0.01635872
226	0x3c83ead6	0.01610319
227	0xbc5a0c07	-0.013308532
228	0xb98c8eb1	-0.00026809194
229	0x3d323f20	0.043517232
230	0x3dde104f	0.10842954
231	0xbe0689ed	-0.13138552
232	0x3d4b43fe	0.04962539
233	0xbc560afd	-0.013064143
234	0x3d84271d	0.06452773
235	0x3c13d372	0.00902258
236	0xbb9cfa37	-0.00479057
237	0x3db1339d	0.086524226
238	0x3de429ca	0.11140783
239	0xbd0030f2	-0.031296678
240	0x3d810a7c	0.06300828
241	0x3d9062f3	0.07050123
242	0x3dc43ed6	0.095822975
243	0xbb654884	-0.003498585
244	0xbdebdf30	-0.11517179
245	0xba8a38bc	-0.0010545473
246	0xbd40f679	-0.047110055
247	0x3d62300b	0.0552216
248	0xbd273830	-0.04082507
249	0x3d9e047e	0.077157006
250	0x3dd87bee	0.10570513
251	0x3bcc836f	0.006241254
252	0xba816266	-0.0009871244
253	0xbba7917b	-0.005113778
254	0xbc378051	-0.011200027
255	0xbdb6f2af	-0.08933007

lstm_layers.0.bias_hh_l0 f4 [512]
0	0xbcfeba05	-0.03109456
1	0xbcccc9b6	-0.024998527
2	0xbd6374e3	-0.055531394
3	0xbd777c55	-0.060421307
4	0xbd182e24	-0.037153378
5	0xbbd6ba4e	-0.006552971
6	0x3d6779b0	0.056512535
7	0x3b40cdbf	0.002941951
8	0xbd89cea7	-0.06728869
9	0x3d9236ed	0.071393825
10	0xbde170ae	-0.1100782
11	0x3d19d2a6	0.037554406
12	0x3d0dea72	0.034647413
13	0xbda15691	-0.07877839
14	0x3d9c00d7	0.07617348
15	0x3de33eaa	0.110959366
16	0xbc4aa371	-0.012368069
17	0x38ddb8f3	0.00010572551
18	0xbcc11337	-0.023568733
19	0xbdaf5179	-0.085604616
20	0xbd397a7e	-0.045282833
21	0xbc24b0b3	-0.010051894
22	0x3d910ec5	0.07082895
23	0x3d29ca5f	0.04145276
24	0x3d81df3d	0.063414074
25	0x3d712ef4	0.05888267
26	0x3dc0d8a2	0.094163194
27	0x3d31eed8	0.04344067
28	0x3d3cca0f	0.046091136
29	0xbbe0b222	-0.0068571726
30	0x3cc45d7a	0.023970354
31	0x3d52661d	0.051366914
32	0x3d0ff26a	0.035143293
33	0xbd9173ce	-0.07102166
34	0x3d6dfb7f	0.058101173
35	0x3d94bfbd	0.07263134
36	0x3b88e6bc	0.0041778963
37	0xbd9fc199	-0.07800598
38	0xbd19ab84	-0.037517086
39	0x3d74ac02	0.059734352
40	0x3d003951	0.03130466
41	0x3d417144	0.04722716
42	0xbd566c8b	-0.05234961
43	0x3dbd4ce2	0.0924318
44	0xbd7a4968	-0.061105162
45	0x3d8c6ddb	0.06856891
46	0xbd2420c2	-0.040070303
47	0xbc6dbfa9	-0.014511027
48	0xbda3c78f	-0.07997047
49	0xbd199a05	-0.0375004
50	0xbd158cac	-0.03651111
51	0x3d92f81e	0.07176231
52	0xbd6121ad	-0.054963756
53	0x3ae48e44	0.0017437418
54	0x3d65b0a8	0.056076676
55	0xbd06d772	-0.03292031
56	0xbd77a4f5	-0.06046005
57	0x3c419a8c	0.011816632
58	0xbda7093c	-0.08156058
59	0x3c6addd4	0.0143351145
60	0xbd6b8a88	-0.05750516
61	0x3c5d66e7	0.013513303
62	0x3d5f864e	0.054571442
63	0xbda10e33	-0.078640364
64	0x3d45d85a	0.048302032
65	0x3d2ff366	0.042956732
66	0x3d7fd486	0.062458538
67	0x3cbb0709	0.022830503
68	0xbda5a3ad	-0.08087859
69	0xbdb27518	-0.0871374
70	0x3d83dcfd	0.064386345
71	0x3c772921	0.0150854895
72	0x3cc5642b	0.024095615
73	0x3d6500c6	0.05590894
74	0x3e25df5b	0.16198485
75	0x3d225f7a	0.039641835
76	0xbd38db71	-0.04513115
77	0xbca6dd4c	-0.020369194
78	0xbd9f344b	-0.07773646
79	0x3d39afd2	0.04533369
80	0xbcec9f94	-0.028884687
81	0xbd6c09f5	-0.057626683
82	0xbd6a6b9b	-0.057231527
83	0xbd904f51	-0.070463784
84	0xbca8523b	-0.020547023
85	0xbd8e9b46	-0.0696321
86	0xbd654822	-0.055976994
87	0x3def1e99	0.11675758
88	0x3d69e2d3	0.057101082
89	0xbcc24959	-0.023716616
90	0xbd897f3a	-0.0671372
91	0x3d39a248	0.04532078
92	0x3cb114b3	0.021616315
93	0x3d809c28	0.062797844
94	0xbd176f19	-0.036971185
95	0xbd56d810	-0.052452147
96	0xbcc9cdee	-0.024634328
97	0xbd3dee6b	-0.04636995
98	0xbd18ded2	-0.037321873
99	0x3d33b32f	0.043872055
100	0xbd483f83	-0.048888694
101	0x3d1999ae	0.037500076
102	0xbd7feb3c	-0.062480196
103	0x3df413de	0.11917852
104	0xbd2a6f7b	-0.041610222
105	0xbae2fc50	-0.0017317627
106	0x3d51580e	0.051109366
107	0x3ceaf757	0.028682394
108	0xbd6abafb	-0.057307225
109	0xbd95b34b	-0.07309588
110	0x3dca71c5	0.09884981
111	0xbc549930	-0.012975976
112	0xbd101a03	-0.035181057
113	0xbd6e327e	-0.05815362
114	0xbd140c32	-0.036144443
115	0xbd7080f9	-0.058716748
116	0x3e7646c6	0.24050435
117	0x3d1fffad	0.03906219
118	0x3cca66ce	0.024707224
119	0x3da46cd4	0.0802857
120	0x3b514046	0.003192918
121	0xbce5018e	-0.027954843
122	0xbd119044	-0.035537973
123	0x3d6640be	0.056214087
124	0xbd8fd8d7	-0.07023781
125	0xbbd5ac8f	-0.0065208147
126	0x3d2c3b15	0.042048533
127	0x3d17b3d5	0.037036736
128	0xbdba350e	-0.09092151
129	0xbd710317	-0.058840837
130	0x3d0f92e1	0.035052184
131	0x3de501a2	0.11181952
132	0x3dbbfc56	0.09178989
133	0x3d6190aa	0.055069603
134	0x3b253f85	0.0025214863
135	0xbdee6172	-0.1163968
136	0x3d48d4f3	0.04903121
137	0x3c8efcd5	0.017454544
138	0x3aa5f1a9	0.0012660521
139	0x3b0d700f	0.0021581685
140	0x3d955aeb	0.07292732
141	0xbd1c0f13	-0.038100313
142	0xbd67b53a	-0.056569315
143	0xbda3eed6	-0.08004539
144	0xbd724705	-0.05914976
145	0x3d24cabf	0.040232416
146	0x3d8d1572	0.06888856
147	0xbd215abb	-0.039393168
148	0xbd8ed70c	-0.06974611
149	0xbd3be294	-0.04587038
150	0x3cddc8ce	0.02707329
151	0xbcc1abf1	-0.023641558
152	0x3d8710e5	0.06595019
153	0xbd8764a1	-0.0661099
154	0x3c520b80	0.012820125
155	0xbda1454e	-0.07874547
156	0xbd770c6b	-0.060314577
157	0xbc3ffa23	-0.011717352
158	0x3c2ed92e	0.010671897
159	0x3dd4019b	0.10351869
160	0xbd1043bf	-0.035220858
161	0xbd8901b9	-0.06689782
162	0xbbb69438	-0.0055718683
163	0x3cd4cbdc	0.025976114
164	0x3dc3e7c4	0.0956569
165	0xbd9994c9	-0.07499082
166	0x3d2691d4	0.040666416
167	0x3d1b9f71	0.037993852
168	0xbd8195a0	-0.06327367
169	0x3ac7c039	0.0015239782
170	0xbd457082	-0.048203
171	0x3d4420b5	0.047882754
172	0x3b2d0669	0.0026401526
173	0xbd9f433b	-0.07776495
174	0xbcfb5892	-0.030681882
175	0xbc9cac29	-0.019125061
176	0x3cd2a8b4	0.02571521
177	0xbda9e4fe	-0.0829563
178	0x3d80cd58	0.06289166
179	0xbbdc9d3a	-0.00673261
180	0x3c712c0b	0.014719973
181	0x3d009afc	0.031397805
182	0xbcb43e15	-0.02200226
183	0x3d06046a	0.032719053
184	0x3db18377	0.08667653
185	0xbd24b45e	-0.040211074
186	0xbdb271dd	-0.08713124
187	0x3d152d5c	0.03642021
188	0x3c7bf1d7	0.015377483
189	0x3d1f34ee	0.038868837
190	0x3dc7b6c3	0.09751656
191	0xbae23824	-0.0017259163
192	0x3de18ed1	0.11013568
193	0x3d025bfc	0.031826004
194	0xbdb99937	-0.090624265
195	0xbdb70b9e	-0.08937763
196	0xbcbbb32e	-0.022912588
197	0xbd8e6a68	-0.06953889
198	0x3d65f877	0.056145158
199	0xbd765464	-0.060139075
200	0xbcdcf5cf	-0.02697268
201	0xbc97533e	-0.01847231
202	0xbdec1693	-0.11527743
203	0x3cf78e5d	0.030219251
204	0x3d6a1947	0.057153013
205	0x3c949823	0.01813895
206	0x3b52ca91	0.0032164196
207	0xbc5119f8	-0.012762539
208	0x3cc1edfe	0.023673054
209	0xbd13bd3d	-0.036069144
210	0xbe000a67	-0.12503968
211	0xbdb07ee7	-0.08617955
212	0xbd8eecda	-0.069787696
213	0xbd5f0385	-0.054446716
214	0x3b560ce1	0.0032661485
215	0xbdb602a8	-0.088872254
216	0x3d40864b	0.04700307
217	0xbc298e0b	-0.010348807
218	0x3d4077f0	0.04698938
219	0xbd85e26d	-0.06537328
220	0x3da175b6	0.0788378
221	0x3d69d1fc	0.057085022
222	0x3d1690f4	0.03675933
223	0xbd65e4ef	-0.05612653
224	0x3cd6301a	0.026145983
225	0xbd51a63a	-0.051183917
226	0xbc97feeb	-0.018554172
227	0x3ca18b0e	0.019719627
228	0x3d92ca6f	0.071675174
229	0x3c26b0e7	0.010174013
230	0x3d1d6b19	0.038432214
231	0xbc52ee83	-0.012874248
232	0xbd5de530	-0.05417365
233	0x3cf93ad9	0.030423569
234	0x3d813727	0.063093476
235	0xbce4263d	-0.027850265
236	0xbd905c9c	-0.07048914
237	0xbb87fa21	-0.0041496907
238	0x3da2c7f5	0.07948295
239	0x3d866273	0.065617464
240	0xbd773ba5	-0.060359616
241	0xbd8ab771	-0.0677327
242	0x3d1fcf29	0.039015923
243	0x3d903496	0.0704128
244	0xbe3da139	-0.18518533
245	0x3cb41d70	0.021986693
246	0xbd97121b	-0.073765
247	0x3dd3f495	0.10349385
248	0xbd7a5e12	-0.06112487
249	0x3d45de27	0.048307564
250	0xbc870129	-0.016480045
251	0xbd048aba	-0.032358862
252	0x3d55acde	0.052166812
253	0xbd36f912	-0.044671126
254	0xbcbcf091	-0.02306393
255	0xbd70bc46	-0.0587733

lstm_layers.1.weight_ih_l0 f4 [256, 128]
0	0x3bf8d3c1	0.0075936024
1	0x3d2b9c3b	0.04189704
2	0x3d8bc5e3	0.06824853
3	0xbde59d63	-0.1121166
4	0xbda04d0d	-0.07827196
5	0x3d4e0b9f	0.05030405
6	0x3e07e9c4	0.13272768
7	0x3d2330b3	0.039841365
8	0x3e1fee61	0.15618278
9	0x3e0fc900	0.14041519
10	0xbccb17e7	-0.024791671
11	0xbd857afa	-0.065175965
12	0x3d8f0850	0.06984007
13	0xbd2660b3	-0.040619563
14	0xbccb331a	-0.02480464
15	0x3cffb8d9	0.031216072
16	0x3daad6d1	0.08341754
17	0xbc796997	-0.0152229285
18	0x3d422a80	0.047403812
19	0xbc9c5dba	-0.019087661
20	0xbcfa98c7	-0.030590428
21	0xbe169a66	-0.14707336
22	0x3daaf706	0.08347897
23	0xbc090721	-0.008363516
24	0xbd4125e8	-0.04715529
25	0xbd9951f3	-0.07486334
26	0x3c0b780b	0.008512507
27	0x3c9eb28f	0.019372253
28	0x3e175e96	0.14782175
29	0x3dcc7f37	0.09985202
30	0xbd7301cc	-0.059327886
31	0xbda76b20	-0.08174729
32	0xbe082ba1	-0.13297893
33	0xbb850d39	-0.004060414
34	0xbe26128b	-0.16218011
35	0x3d5f4276	0.05450674
36	0xbb81577e	-0.0039471975
37	0x3bc5815c	0.0060273837
38	0x3d4b8647	0.049688604
39	0x3c5abb50	0.013350323
40	0x3c577380	0.013150096
41	0xbd14aa86	-0.036295436
42	0x3d79ba81	0.06096888
43	0x3d9f41b2	0.07776202
44	0xbe0fcbf1	-0.14042641
45	0xbdc6fc11	-0.097160466
46	0x3e24a5f7	0.16078936
47	0xbd1bb3c3	-0.03801323
48	0x3da611d2	0.08108868
49	0x3dec46bb	0.11536928
50	0x3d0cbb4d	0.03435831
51	0xbe076744	-0.13222986
52	0xbdea0421	-0.11426569
53	0xbd96c8c2	-0.0736251
54	0xbcfbd297	-0.030740066
55	0x3df6c221	0.12048746
56	0x3daee878	0.08540434
57	0x3da3a407	0.0799027
58	0xbd883e76	-0.066525385
59	0xbc8935b5	-0.016749242
60	0x3d022f24	0.031783238
61	0xbd76eda2	-0.060285218
62	0x3d2488b2	0.040169425
63	0xbdd73072	-0.10507287
64	0x3d727aa3	0.059198987
65	0xbd03582d	-0.032066513
66	0x3d142eb8	0.036177367
67	0x3d8f559b	0.0699875
68	0x3c51d6af	0.012807532
69	0xbd4a13aa	-0.04933516
70	0x3dd02bd0	0.101646066
71	0xbe2c7a83	-0.1684361
72	0x3e08bd50	0.13353467
73	0x3d91f4aa	0.07126744
74	0xbe177aee	-0.14792988
75	0xbd0e109f	-0.03468382
76	0xbd0949fb	-0.03351782
77	0xbde21442	-0.1103902
78	0xbcb20e8d	-0.021735454
79	0x3de16143	0.11004879
80	0x3d6252c1	0.0552547
81	0x3d0f62d1	0.035006348
82	0xbdf2f3c2	-0.11862899
83	0xbdaa854d	-0.08326206
84	0xbc6b3300	-0.014355421
85	0x3b7da2a1	0.003870167
86	0x3c75bc3c	0.014998492
87	0xbd081d05	-0.0332308
88	0xbdad266c	-0.08454594
89	0xbd4e531c	-0.050372228
90	0x3daa1a8e	0.08305846
91	0xbe1abac2	-0.15110305
92	0x3db6c138	0.08923572
93	0x3d02bc2f	0.031917747
94	0xbc2d80a5	-0.010589753
95	0x3d3d1302	0.046160705
96	0x3d94882b	0.072525345
97	0xbdb482a6	-0.08813982
98	0x3dfd82a5	0.12378434
99	0xbd4df29c	-0.0502802
100	0xbd885e95	-0.06658665
101	0x3ca12845	0.019672522
102	0xbdde1a05	-0.108448066
103	0x3c035885	0.00801671
104	0xbde3bd11	-0.11120046
105	0x3de1f4dc	0.11033031
106	0xbdf60cf9	-0.12014193
107	0x3d98f271	0.07468117
108	0x3d82cc5b	0.06386634
109	0xbd114397	-0.03546485
110	0xbdba9fe8	-0.09112531
111	0xbb11e45d	-0.002226136
112	0x3dacef12	0.084440365
113	0x3c82ddee	0.015974965
114	0x3d86194a	0.06547792
115	0xbcbbf9f3	-0.022946334
116	0x3e054661	0.13015129
117	0x3ccb3b37	0.02480851
118	0x3d31c78b	0.04340319
119	0x3df351ba	0.118808225
120	0x3c9c3162	0.019066516
121	0xbde89da8	-0.113581955
122	0x3e0b644c	0.13612479
123	0xbd9de76c	-0.07710156
124	0xbe2fca2c	-0.17166966
125	0xbdcb3cfc	-0.09923741
126	0xbc7462ca	-0.014916131
127	0x3cd8ad55	0.026449839
128	0xbcb1a5c0	-0.021685481
129	0x3de6683e	0.11250351
130	0xbb3d6154	-0.0028897123
131	0x3d6c36d5	0.05766948
132	0xbcde0034	-0.027099706
133	0xbc1bf2ff	-0.009518384
134	0xbcf21844	-0.029552586
135	0xbda906a9	-0.082532234
136	0xbd6e83db	-0.058231216
137	0x3d150c8c	0.03638892
138	0xbda428d9	-0.080156036
139	0xbdcb757b	-0.09934517
140	0x3cedca26	0.029027056
141	0x3d2f03b8	0.042728156
142	0xbdbab8b6	-0.09117262
143	0x3cb6607c	0.022262804
144	0x3e4ad880	0.1980915
145	0x3d6bba10	0.05755049
146	0x3d977cb6	0.073968336
147	0xbdcd2765	-0.100172795
148	0xbe769566	-0.24080428
149	0x3e47fd59	0.19530238
150	0x3cf07ff8	0.029357895
151	0x3dbe68ed	0.09297357
152	0xbdf8e90e	-0.12153827
153	0x3dded2a4	0.1088002
154	0x3b05845b	0.002037308
155	0xbdeb351a	-0.11484738
156	0x3da63bfa	0.08116908
157	0xbd175297	-0.036944
158	0x3d823e2a	0.06359513
159	0x3da60362	0.08106114
160	0x3d44a854	0.048012093
161	0xbd1db0fd	-0.038498867
162	0xbcdf8161	-0.027283372
163	0xbd02a696	-0.03189715
164	0x3d220ee0	0.039564967
165	0xbe184113	-0.14868574
166	0xbded9aaf	-0.11601769
167	0xbdd4e886	-0.10395913
168	0x3d0468d3	0.03232653
169	0x3db0ba6b	0.086293064
170	0x3e17961e	0.14803359
171	0x3d06afe6	0.032882594
172	0x3bc1fa7d	0.005919753
173	0x3e157c05	0.14598091
174	0x3e191ff0	0.1495359
175	0x3d626172	0.055268712
176	0xbcf4584d	-0.029827261
177	0x3d53512a	0.051591076
178	0xbc5d1bf8	-0.013495438
179	0x3d213592	0.03935773
180	0xbd4c0325	-0.049807686
181	0xbe0284fe	-0.12746045
182	0xbdfc0872	-0.12306298
183	0x3d9713ca	0.07376821
184	0x3c45f1d1	0.012081579
185	0xbdae9536	-0.085245535
186	0xbe1add2d	-0.15123434
187	0xbe34dc6b	-0.17662208
188	0x3dec673a	0.115431264
189	0xbe093617	-0.1339954
190	0xbdb37b74	-0.08763781
191	0xbdeccfa4	-0.11563042
192	0x3e026142	0.12732413
193	0x3d9e78e3	0.07737901
194	0x3dc90018	0.09814471
195	0x3d8968ea	0.06709464
196	0xbd56eb05	-0.052470226
197	0x3e382c39	0.1798562
198	0x3dcc2339	0.09967656
199	0xbe189d3f	-0.14903735
200	0xbc33ca98	-0.010973595
201	0xbd6b20ea	-0.057404436
202	0x3de3b4aa	0.11118443
203	0x3d255732	0.04036636
204	0x3e0e9277	0.1392306
205	0x3df23cdc	0.11828014
206	0xbe46c46b	-0.19410865
207	0x3d7a7e73	0.061155748
208	0x3ddfdbf5	0.10930625
209	0xbd9a36b8	-0.07529968
210	0xbd486cf2	-0.048932023
211	0x3ad1120f	0.0015950816
212	0xbcba5043	-0.02274335
213	0x3cd72c77	0.02626632
214	0xbc99b100	-0.018761158
215	0xbd9b6b02	-0.075887695
216	0xbe00d54d	-0.12581368
217	0xbda50862	-0.080582395
218	0xbc97e76c	-0.018542968
219	0x3da758a3	0.08171203
220	0x3d7860c8	0.060639173
221	0x3ded9d29	0.116022415
222	0xbddf4949	-0.1090265
223	0x3e271759	0.163175
224	0x3dffaff7	0.124847345
225	0xbd91943a	-0.0710835
226	0x3d744b87	0.05964234
227	0xbe093aad	-0.1340129
228	0xbd4d5b2b	-0.050135773
229	0x3cd1acb0	0.02559504
230	0x3cd29dc6	0.025709998
231	0xbc3ac4fa	-0.011399502
232	0xbde50fb2	-0.11184634
233	0xbd3fe6d5	-0.046850998
234	0xbd483c23	-0.048885476
235	0xbd83317e	-0.06405924
236	0xbd1a6a8b	-0.037699264
237	0xbc2bfc07	-0.0104971
238	0xbd95c320	-0.07312608
239	0xbd91d21c	-0.07120153
240	0xbaf593ad	-0.0018736027
241	0x3e17f6cb	0.14840238
242	0xbb4355b5	-0.0029805724
243	0x3c872a7e	0.016499754
244	0xbd5b6a40	-0.053568125
245	0xbde3b899	-0.111191936
246	0x3c9a4a1c	0.018834166
247	0xbdde2e18	-0.108486354
248	0x3cf98e1e	0.030463275
249	0xbd6cdce6	-0.057827853
250	0x3de8f5e7	0.11375027
251	0xbd8f9766	-0.07011299
252	0xbdfd157e	-0.12357615
253	0x3deb2f2d	0.114836074
254	0x3da14262	0.0787399
255	0x3dbdb0c7	0.09262233

lstm_layers.1.weight_hh_l0 f4 [256, 64]
0	0xbd220a9c	-0.0395609
1	0x3d4d5469	0.050129328
2	0xbda7c7b5	-0.08192388
3	0xbcdd349f	-0.02700263
4	0x3b740454	0.0037234025
5	0x3c4d4a2b	0.01252989
6	0xbc940273	-0.018067574
7	0x3cab48d2	0.020908747
8	0xbd59cef4	-0.05317588
9	0xbd5b6130	-0.053559482
10	0xbde550a2	-0.1119702
11	0xbd80605b	-0.06268378
12	0xbd0833a5	-0.033252377
13	0xbb3cbbe9	-0.0028798527
14	0xbd74e0d1	-0.059784714
15	0x3d1e0c89	0.038586173
16	0x3d560ca3	0.052258145
17	0xbaf38598	-0.0018579243
18	0x3ca909d5	0.020634571
19	0xbdcfe72a	-0.10151513
20	0x3de86865	0.11348037
21	0x3c816270	0.015794009
22	0x3ce20834	0.027591802
23	0xbe096084	-0.13415724
24	0xbddb59df	-0.10710501
25	0x3deaad8b	0.11458882
26	0xbe265498	-0.16243207
27	0x3d0cb5b9	0.03435299
28	0x3d9d30d8	0.07675332
29	0xbdd2cc01	-0.10292817
30	0xbcb48a31	-0.022038551
31	0xbe064ef2	-0.13116053
32	0xbde41a51	-0.11137832
33	0xbdb5e0b2	-0.08880748
34	0x3c9bb51f	0.019007264
35	0xbdc1af0a	-0.09457214
36	0xbc991a4d	-0.018689299
37	0x3e25db5f	0.16196965
38	0x3d67b785	0.056571502
39	0x3db0af1f	0.08627152
40	0xbd1ae1d1	-0.03781301
41	0x3dd90401	0.10596467
42	0x3db17e7a	0.086667016
43	0xbdbee1e0	-0.09320426
44	0x3d3925b0	0.045201957
45	0x3d8a61ee	0.0675696
46	0x3d807881	0.06272984
47	0xbd13bf9a	-0.036071397
48	0xbde1bd1e	-0.11022399
49	0x3dcba3f3	0.0994338
50	0x3e0111e9	0.12604488
51	0xbde42b9c	-0.1114113
52	0xbcb12b34	-0.021627046
53	0x3de71cf5	0.1128482
54	0x3d395295	0.045244772
55	0x3e1d7401	0.15376283
56	0xbd095555	-0.033528645
57	0xbdd9db58	-0.106375396
58	0xbdd838d8	-0.10557717
59	0x3c3d3688	0.011548646
60	0xbd0f364d	-0.034963895
61	0xbc7675e5	-0.015042757
62	0x3e031f1e	0.12804839
63	0xbc3a6970	-0.011377677
64	0xbe12f0b8	-0.1434964
65	0xbdaabf21	-0.08337236
66	0x3df66db8	0.12032646
67	0xbdb16533	-0.0866188
68	0x3cc022cf	0.023454098
69	0x3d82281b	0.06355306
70	0xbdf2672e	-0.11836086
71	0xbd114abf	-0.035471674
72	0xbdc90d19	-0.09816951
73	0xbd859b21	-0.06523729
74	0xbe513cdb	-0.20433371
75	0x3c926c6b	0.017873963
76	0xbdaed296	-0.0853626
77	0x3e015da0	0.12633371
78	0xbd3bb2b5	-0.045824725
79	0xba80a015	-0.0009813333
80	0xbd6677fd	-0.056266773
81	0x3d676f40	0.05650258
82	0xbd165440	-0.03670144
83	0xbcec2251	-0.028824957
84	0x3de641b1	0.112429984
85	0xbd2c7281	-0.042101387
86	0xbcf5c4ed	-0.030001128
87	0x3d41dcb5	0.047329623
88	0xbd601d53	-0.054715466
89	0xbd1c942a	-0.038227238
90	0x3b14eadc	0.0022722995
91	0xbcce556e	-0.02518722
92	0xbd5f1e14	-0.054472044
93	0xbd0874ac	-0.033314392
94	0xbcd649d6	-0.026158255
95	0xbe16e3ca	-0.14735332
96	0xbda9d4ff	-0.08292579
97	0xbddb7682	-0.10715963
98	0x3d1a9676	0.037741147
99	0xbd9a4a10	-0.075336576
100	0x3c095997	0.008383176
101	0x3e04bee0	0.12963438
102	0x3e5069bd	0.20352836
103	0x3d7b6f0e	0.061385207
104	0xbce5750b	-0.028009912
105	0xbb92a994	-0.0044757817
106	0x3ddbefcc	0.10739097
107	0xbc31f43b	-0.010861452
108	0x3d5fd1cf	0.05464345
109	0xbda7136b	-0.081580006
110	0xbcfc02c4	-0.030763038
111	0x3e24d86b	0.16098182
112	0xbc69b7e4	-0.014265034
113	0x3e1b98df	0.15195034
114	0x3dd1e80f	0.1024934
115	0xbe845610	-0.2584691
116	0xbd89364a	-0.06699808
117	0xbccf8c7a	-0.02533554
118	0x3e8e4996	0.27790517
119	0x3db48831	0.08815039
120	0x39eebdf0	0.00045536412
121	0x3d0c6656	0.034277283
122	0xbe144f71	-0.1448343
123	0xbab0263e	-0.0013439131
124	0x3d062fc5	0.0327604
125	0x3d404b1c	0.04694663
126	0x3d270a81	0.0407815
127	0x3e1882db	0.14893667
128	0x3d5bb6a0	0.05364096
129	0x3dbf7336	0.093481466
130	0xbdeabf45	-0.11462263
131	0xbb85d259	-0.0040839133
132	0xbcc19fe7	-0.023635818
133	0x3da61431	0.0810932
134	0xbe02c88a	-0.12771812
135	0x3d410053	0.04711945
136	0x3d226ef8	0.03965661
137	0x3cab5494	0.020914353
138	0xbe2df39c	-0.16987461
139	0xbd6860e3	-0.056733023
140	0x3d5d1d8d	0.05398326
141	0xbdc2091b	-0.09474393
142	0xbdceb438	-0.10092968
143	0x3cf1da65	0.029523084
144	0x3d4958f4	0.049157098
145	0xbddb4b0a	-0.10707672
146	0x3d237a5c	0.039911613
147	0x3b913662	0.0044315318
148	0x3de4f5db	0.11179706
149	0x3c570a83	0.013125065
150	0x3d91c2ec	0.071172565
151	0xb8d910b0	-0.000103504746
152	0x3d836547	0.064158015
153	0x3d58ddb3	0.052945804
154	0xbda68311	-0.08130468
155	0x3cbba6a7	0.022906614
156	0xbdd6f280	-0.10495472
157	0x3d37b3dc	0.04484926
158	0x3d072d13	0.03300197
159	0x3cdd494d	0.027012492
160	0xbdcb70a6	-0.09933595
161	0x3d060c79	0.03272674
162	0xbd3cf964	-0.046136275
163	0xbd62ac3c	-0.055340037
164	0x3c570dc7	0.013125843
165	0x3c0a3755	0.008436044
166	0x3df3f428	0.119118035
167	0x3dc13b7f	0.09435176
168	0xbe0d757e	-0.13814351
169	0x3da9f5b1	0.08298815
170	0x3d0d7968	0.03453961
171	0x3d8959c2	0.06706573
172	0x3c2d7696	0.010587355
173	0xbb3a9622	-0.0028470834
174	0xbd08362a	-0.03325478
175	0x3e0836dd	0.13302179
176	0xbd94f930	-0.07274091
177	0x3df93bba	0.12169595
178	0x3dc6d729	0.09709007
179	0xbcc8d1e7	-0.024514152
180	0x3d261622	0.04054845
181	0xbcbae029	-0.022811966
182	0x3e60e52d	0.21962424
183	0xbe0575e6	-0.13033256
184	0x3dd5e893	0.10444751
185	0x3bdb0e34	0.0066850428
186	0xbd4995b5	-0.049215037
187	0xbdd5a9e5	-0.104327954
188	0xbc96b2bb	-0.018395772
189	0xbdc0c90a	-0.09413345
190	0x3de01083	0.10940649
191	0x3e08fe46	0.13378248
192	0x3dac2db6	0.08407156
193	0x3df07cda	0.117425635
194	0x3d1d9c22	0.038478978
195	0xbd2955bd	-0.041341532
196	0x3c896f0c	0.016776584
197	0x3d90bae2	0.07066895
198	0xbcc6c477	-0.024263604
199	0x3d21218c	0.039338633
200	0xbc2a163d	-0.010381279
201	0xbc488d95	-0.012240787
202	0x3d881445	0.06644491
203	0xbe1b802a	-0.1518561
204	0xbd052b2f	-0.032511886
205	0xbe1eec9c	-0.15519947
206	0x3de63e68	0.11242372
207	0x3e0402ad	0.12891646
208	0x3df36a66	0.11885528
209	0x3e179cca	0.14805904
210	0x3d024539	0.031804297
211	0x3dcc3196	0.09970395
212	0x3dd9527c	0.10611436
213	0x3d8e57db	0.06950351
214	0x3da6bcc1	0.08141471
215	0x3cfec8f6	0.031101685
216	0x3c1a36c5	0.009412472
217	0xbda151d3	-0.07876935
218	0xbe18cdab	-0.14922206
219	0x3e17deaa	0.14831033
220	0xbd1ccdaf	-0.038282093
221	0xba288c0c	-0.000642956
222	0xbdc5dd27	-0.09661322
223	0x3ddc89cc	0.1076847
224	0xbdf8a70c	-0.12141237
225	0x39c303fe	0.00037196273
226	0x3d6663bf	0.05624747
227	0xbdd4495b	-0.10365554
228	0xbde7c41a	-0.113167
229	0x3d8cda9d	0.06877635
230	0xbabc23fd	-0.0014353987
231	0xbd909e7b	-0.07061478
232	0xbd14b076	-0.0363011
233	0xbd31600c	-0.043304488
234	0x3cdc101b	0.026863148
235	0x3e04b2e3	0.12958865
236	0x3de7f6da	0.1132638
237	0xbdd87093	-0.10568347
238	0x3d583fbb	0.052795153
239	0xbe09dcf8	-0.13463199
240	0x3d57ad1f	0.052655336
241	0xbe2adeaf	-0.1668651
242	0xbd313210	-0.043260634
243	0xbd715844	-0.058922067
244	0xbdef859d	-0.116954066
245	0x3cf2a168	0.02961798
246	0xbcad398e	-0.021145608
247	0x3b87aff5	0.0041408488
248	0xbc90cda7	-0.017676188
249	0xbdcf85d2	-0.10132946
250	0xbdc63378	-0.09677786
251	0xbda30be1	-0.0796125
252	0xbda224a3	-0.07917144
253	0xbbbc4b2c	-0.005746266
254	0xbd358fb2	-0.04432649
255	0xbda05738	-0.07829136

lstm_layers.1.bias_ih_l0 f4 [256]
0	0xbdbd9910	-0.0925771
1	0x3df24ca6	0.11831026
2	0x3c65e5fe	0.014031885
3	0x3dbc7040	0.092010975
4	0x3d15f322	0.036608823
5	0x3d711a36	0.058862887
6	0x3d9fa0eb	0.077943645
7	0xbabe1156	-0.0014501016
8	0xbdbc904e	-0.092072114
9	0xbc8b40bd	-0.016998643
10	0x3dddc878	0.10829252
11	0xbd896e83	-0.067105316
12	0xbd866c20	-0.06563592
13	0x3dcf18da	0.10112162
14	0x3d4d0d70	0.050061643
15	0xbc9317ff	-0.017955778
16	0x3e0d7cf8	0.13817203
17	0x3d505f78	0.050872296
18	0xbda20c37	-0.07912486
19	0x3e73ec50	0.23820615
20	0x3d64b5de	0.055837505
21	0x3dcc7f3f	0.09985208
22	0xbd8ad6a4	-0.06779221
23	0x3da18a14	0.078876644
24	0xbc9be2e8	-0.019029096
25	0xbd066301	-0.03280926
26	0x3dc7f927	0.09764319
27	0xbd310d7f	-0.04322576
28	0x3d937376	0.07199757
29	0x3c5cb47e	0.013470767
30	0xbd6db484	-0.05803348
31	0xbd292b1f	-0.04130089
32	0xbcef5395	-0.02921466
33	0x3d9f9c06	0.07793431
34	0x3c831514	0.016001262
35	0x3d3362d5	0.043795425
36	0xbc0a9c32	-0.008460091
37	0xbd952f34	-0.07284394
38	0xbc615c8c	-0.013754975
39	0x3e91b10b	0.28455386
40	0x3dd45e07	0.10369497
41	0xbd691e64	-0.05691375
42	0x3d7648de	0.060128085
43	0xbc3c91c1	-0.01150936
44	0x3cde172c	0.027110659
45	0xbd432eb8	-0.047651976
46	0xbd6c1dae	-0.057645492
47	0xbd651fe2	-0.05593861
48	0xbc5bea8a	-0.013422618
49	0xbda9ed18	-0.08297175
50	0xbd84c2b7	-0.064824514
51	0xbd86e3b8	-0.06586403
52	0xbe0c6901	-0.13711931
53	0x3e085ec1	0.13317396
54	0x3d8b1ee9	0.06793005
55	0x3e42bacd	0.19016571
56	0x3d907ff5	0.07055656
57	0xbe098c8a	-0.13432518
58	0x3d4f5cdb	0.050625663
59	0x3e0b7ab0	0.1362102
60	0x3def12db	0.11673518
61	0xbc00b07a	-0.007854575
62	0x3d319350	0.04335338
63	0xbda980b8	-0.08276504
64	0x3d3a1d02	0.04543782
65	0xbe13a9c2	-0.14420226
66	0xbe0751f2	-0.13214853
67	0x3da302fc	0.079595536
68	0xbe15b73a	-0.14620677
69	0xbc42504a	-0.011859963
70	0x3cdb5d07	0.026777757
71	0x3de87c3d	0.113518216
72	0x3d83af78	0.064299524
73	0xbe22a8f9	-0.1588477
74	0x3de9cb82	0.11415769
75	0xbd8583ac	-0.06519255
76	0x3d3cee70	0.04612583
77	0xbdd75a33	-0.10515251
78	0x3dabb89f	0.08384823
79	0x3d356417	0.044284906
80	0xbd81796b	-0.06321987
81	0xbd5cdd47	-0.053921964
82	0xbdf3596c	-0.1188229
83	0xbd3ebc3d	-0.046566237
84	0xbe073fa9	-0.13207878
85	0x3cf4e1bb	0.029892793
86	0x3ccc0171	0.024903031
87	0xbbf65d81	-0.0075184708
88	0x3d306193	0.043061804
89	0x3d91371a	0.07090588
90	0x3e092bfc	0.13395685
91	0x3dbf625e	0.09344934
92	0xbd6d0c32	-0.05787296
93	0xbe223985	-0.15842254
94	0x3da7cd4c	0.08193454
95	0xbe0b9d7a	-0.13634291
96	0x3d2472b7	0.040148463
97	0xbdb407c0	-0.08790541
98	0x3dad8c0a	0.08473976
99	0x3d9a42d3	0.07532277
100	0x3d8bdf36	0.068296835
101	0xbda5aa68	-0.08089143
102	0xbdb64107	-0.08899122
103	0xbe41c875	-0.18924125
104	0xbd02b29b	-0.031908613
105	0x3d06aec1	0.032881502
106	0x3dc2b628	0.095074
107	0x3e056dda	0.13030186
108	0xbdaf3f5d	-0.085570075
109	0xbd27492b	-0.040841263
110	0xbab90b2d	-0.001411771
111	0xbced41e6	-0.028962087
112	0x3d5035fb	0.05083273
113	0xbced926d	-0.029000485
114	0x3d1ac7ed	0.03778832
115	0xbd9192da	-0.07108088
116	0x3c147ac3	0.009062472
117	0xbc8d2c8e	-0.01723316
118	0x3d0fd4ec	0.035115167
119	0x3dc5220d	0.09625635
120	0x3bfb2d1a	0.0076652886
121	0xbd2d9026	-0.0423738
122	0xbdd23845	-0.10264639
123	0x3cb59c7e	0.022169348
124	0xbde8d499	-0.11368675
125	0xbdc828f4	-0.09773436
126	0xbddb7b51	-0.1071688
127	0x3c67d1ef	0.014149173
128	0x3dd0f441	0.10202838
129	0x3c8aa2b1	0.01692328
130	0x3b4d3874	0.0031314166
131	0x3d0effd0	0.03491193
132	0x3ca9e7ca	0.020740408
133	0xbcf85053	-0.03031174
134	0xbdc16484	-0.09443
135	0xbcb3ae02	-0.02193356
136	0xbd54ad43	-0.051923048
137	0x3ce70eb1	0.028205248
138	0xbdf8f041	-0.121552
139	0x3d9c2fe1	0.0762632
140	0x3d06cf1a	0.03291235
141	0xbd282c18	-0.041057676
142	0xbd9fbeb3	-0.07800045
143	0xbc904b58	-0.017614052
144	0xbd9568f4	-0.07295409
145	0xbdd22f36	-0.10262911
146	0x3d31ee60	0.043440223
147	0xbaaeadab	-0.0013326904
148	0xbd96b4d3	-0.07358708
149	0xbde304d4	-0.11084905
150	0xbdafc198	-0.08581847
151	0x3de38b76	0.111105844
152	0x3d0b4d38	0.03400919
153	0x3bedca19	0.007256758
154	0xbd5bb104	-0.053635612
155	0xbbc6ab45	-0.0060628974
156	0xbdc543cb	-0.09632071
157	0xbd0675fb	-0.03282736
158	0x3dc78106	0.09741406
159	0xbd415d4c	-0.047208115
160	0xba932dda	-0.0011228875
161	0x3dc15579	0.09440131
162	0xbba5ddeb	-0.005061855
163	0xbbe5c7b8	-0.0070123337
164	0x3d94633f	0.07245492
165	0x3d87d519	0.06632442
166	0x3d83fe32	0.06444968
167	0xbd84b23c	-0.06479308
168	0xbcb14e9a	-0.021643925
169	0xb8c40b86	-9.348155e-05
170	0xbdabc09a	-0.08386345
171	0x3d53411b	0.05157576
172	0x3dec2b8c	0.115317434
173	0xbdbe3b19	-0.09288616
174	0x3dce40e6	0.10070972
175	0xbc292e3f	-0.010325967
176	0x3dec559a	0.11539765
177	0x3d26469a	0.040594675
178	0x3d271888	0.04079488
179	0xbdd3ca6d	-0.10341344
180	0xbdecce32	-0.11562766
181	0xbdc68b5e	-0.09694551
182	0x3d2be27e	0.041964047
183	0xbda02d5c	-0.078211516
184	0x3beaf8d3	0.0071707754
185	0xbd402f75	-0.04692026
186	0xbc85330b	-0.01625969
187	0xbc025589	-0.0079549635
188	0x3d09a4e0	0.033604503
189	0x3dbf1985	0.09331039
190	0xbcf0614b	-0.029343268
191	0xbcd7ed23	-0.026358193
192	0xbdd979bb	-0.10618921
193	0x3e8b2c60	0.27182293
194	0x3e75dbac	0.2400958
195	0xbe072f07	-0.13201533
196	0x3d73a877	0.059486832
197	0x3d4475c5	0.047963876
198	0x3dec2a75	0.115315355
199	0x3dd6b439	0.104835935
200	0x3dfa7607	0.12229543
201	0x3c82621e	0.015915927
202	0x3dc1b81f	0.094589464
203	0x3d235190	0.039872706
204	0xbb7596c6	-0.0037473901
205	0x3d40d49f	0.04707777
206	0x3c9c539c	0.019082837
207	0x3d599be4	0.053127185
208	0x3e33f4cd	0.17573853
209	0xbd3bbd28	-0.04583469
210	0x3ce3605d	0.02775591
211	0x3dd9361b	0.10606023
212	0x3db865ea	0.090038136
213	0x3dc06a85	0.09395317
214	0xbdc69166	-0.09695701
215	0xbdaf134b	-0.08548602
216	0x3c528e86	0.012851363
217	0xbce7cfe4	-0.028297372
218	0x3cc1225a	0.02357595
219	0x3dfc1226	0.12308149
220	0xbdf5d535	-0.12003557
221	0x3db8a9d2	0.09016766
222	0xbda6f2c0	-0.0815177
223	0xbe12bfd4	-0.14330989
224	0xbe17fcb6	-0.14842495
225	0xbc9778cf	-0.018490223
226	0xbd83050f	-0.06397449
227	0xbc037b12	-0.008024948
228	0xbdf7ea6b	-0.121052586
229	0x3cc7f721	0.024409832
230	0xbbf022ac	-0.007328352
231	0x3e912377	0.2834737
232	0x3e3e4d4d	0.18584175
233	0x3dc7e554	0.09760538
234	0x3bf0d722	0.0073498646
235	0xbd6313c7	-0.055438783
236	0x3da80b9b	0.082053386
237	0xbcb7f232	-0.022454355
238	0xbdcd2cbf	-0.100183
239	0xbcba5aee	-0.022748437
240	0xbc46314b	-0.012096713
241	0x3dd53f3c	0.104124516
242	0x3de27c98	0.110589206
243	0x3dc04627	0.093883805
244	0xbe0266fb	-0.12734596
245	0xbcd2c51e	-0.025728758
246	0x3d9a6b30	0.07539976
247	0x3e1cede2	0.1532512
248	0xbe052c1d	-0.13005109
249	0x3c8044bd	0.015657777
250	0xbc2cc9e1	-0.010546179
251	0x3d95aab5	0.073079504
252	0x3ccc64e4	0.024950452
253	0xbdc965d5	-0.09833876
254	0x3c425805	0.011861806
255	0x3db7c35e	0.0897281
